model/model.pth (torch, 16799 bytes, 4 tensors)

linear1.weight f4 [256, 11]
00000000: ac0a 9bbd efbb 383e b943 493e 3773 9cbe
00000010: 2229 94be 24ac 8f3d 1696 1bbc fac7 2e3d
00000020: bafd 7cbe ad3a 04be e34a 21be 829b 223f
00000030: 0cde 48be b22b 59be 1a39 d03e bf91 bdbe
00000040: 6a46 5abd 9627 a63e 2a33 9cbe c829 c63e
00000050: c542 153e 6565 36be aa49 6bbe 84c0 cbbe
00000060: 7208 083e 8331 95be 211d 153e 4c4a 8d3e
00000070: eb8d 90be 4092 fdbe e151 4f3e 67a3 84be
00000080: 5336 b1be d842 0a3e c7fe 383f 2be8 de3e
00000090: 59f6 12be a20b 6cbe 280b 413d c615 db3d
000000a0: c8c7 95bd af7b 933c edf2 4f3e 3d34 8a3e
000000b0: b857 043e ca04 293f 574c 00bf ff80 8abc
000000c0: bfec 38bc c75a 6cbe e023 7ebe 7751 a53e
000000d0: 7ae5 043e 1391 b33d b564 9d3d 4366 8b3e
000000e0: e572 7bbc 061e 2b3f 8413 c6bd c2f1 1bbe
000000f0: ea8b cd3d ee86 7bbe 1192 1d3e b4cc a13e
00000100: 7ee6 7d3e 81a7 993e 9a20 393e 1bf3 e03e
00000110: 3c97 9d3d 2002 11bd fe8f 86be d703 2abe
00000120: 2a9b 9ebe cc56 bc3e ebf6 9e3e 5db3 083e
00000130: 74f7 6e3e cf07 923b 2896 313f 69db b3be
00000140: ffc4 853d 53c9 3f3e 55bd e8bd 3e7d 37be
00000150: ebae da3d 4f75 723c f099 8fbd 4004 96be
00000160: bc66 24be d658 19bf 557a f0bd 1077 15be
00000170: 4aca abbe 5305 fe3e 2d01 553e a715 3d3e
00000180: 8f8f af3e 92cc febe fe9f 35be a8ee 32be
00000190: f0cb 32be 87af a1be 385f d53e 7724 6cbe
000001a0: c71f f2bd b55e 41bd 32fc 8e3e ad35 e1be
000001b0: e2a4 24be 03f2 9c3d 3465 a73e 7b77 c6be
000001c0: 47f7 a13d 7a4a 783d 4f90 653d 63b7 cbbe
000001d0: 0fd1 af3e 2381 a63e b182 cfbd b744 c43e
000001e0: f15e acbe e3ab 7c3c 3312 4d3c 1671 4dbe
000001f0: 6fb0 1fbe 581d 44be 2160 16be 6ba2 14be
00000200: 6cf5 73be 822d 22be 69d2 3cbe 0a81 44be
00000210: e2d8 51bd ed69 203e acb7 ce3c 0d71 cfbe
00000220: 56dc 203a cf5b 1c3e e66a b9be d164 d83e
00000230: 80b6 1b3d a6f2 75be 99f8 cc3e f2ec 603d
00000240: 1053 913e f2ef 153f 8e1e 13be a9db 29be
00000250: c705 6c3b 18dc 9fbc 9dba f13d e89f db3d
00000260: 6bd8 8c3e d04c 913e bd12 9e3e be60 86bd
00000270: 05bb 76be c1d0 b53d 1c7d 04bf aad8 07bd
00000280: 645a e4bd f010 d53d 7a03 933e 84e5 ecbd
00000290: 1fa2 2c3c e37a cc3e 4795 e03e af35 aebe
000002a0: 8413 d0bd dc65 71be c0c2 5abe 9766 8dbc
000002b0: 9d0b 11bd 3478 7a3e 3fbc 84be e7d0 bbbd
000002c0: 7f4d 9d3c 58a6 fdbc 7c29 d93d 4e27 20be
000002d0: c80e 19be 92f6 723e af32 a1be 38fb 83be
000002e0: 1125 69be 7805 2cbf 5d18 973e 169b bc3e
000002f0: 2432 253f 833d 0d3e 8b01 9fbe 69a3 25bc
00000300: d1c6 e9bd 1f4a 7cbe 8841 713e 2131 16be
00000310: b0c3 17be aa1d 83bd bddc 50be 70a7 723e
00000320: 72d9 2cbe 586f d6be 0139 f33e f42c 843e
00000330: a8da 2fbe 8dfe 2ebe 3497 c43e 8322 453e
00000340: 463d c5be 129c c73e f04d 503d 3294 343f
00000350: 5757 9c3b f212 a2be 972d 6bbe 1a3c a2be
00000360: 6250 af3e 9d14 e13e 24ee a83e 07ff 8d3e
00000370: e3e9 0e3f 6eb7 e33e 2b8f 2d3c 8252 26be
00000380: b8fe 94be 00d8 87be 5e7e bfbd 7336 853e
00000390: befd d73e 4b3b ab3e acae 453e 51b8 96be
000003a0: 7eb1 23be a9c0 60be 35a0 0cbe eb3f 2ebf
000003b0: f050 c73e ce2f 08bf dbca e8be b3bd df3e
000003c0: 7891 02bf 3a9f b1bb 6cd2 0f3f fb7d d4bb
000003d0: 89ea 70bd aaa9 663d 7be7 a5bc cffb e2be
000003e0: bad4 863e d041 5cbe c0bf 25be 97c5 913e
000003f0: 16f6 eabe cf76 44bd 1be2 a6bd ccac b43e
-0.07570395 0.18040441 0.1965474 -0.30556652 -0.28937632 0.07015255 -0.0094962325 0.04267118
-0.24706164 -0.12913008 -0.15751223 0.63518536 -0.19615954 -0.21208075 0.40668565 -0.37025258
-0.05328981 0.32452077 -0.30507785 0.38703752 0.14576252 -0.17812116 -0.2297732 -0.39795315
0.13284472 -0.29139337 0.14561893 0.27595747 -0.28233275 -0.49525642 0.20246078 -0.25905916
-0.3461176 0.13502061 0.7226376 0.43536505 -0.14351787 -0.23051313 0.04712978 0.10697512
-0.07313496 0.018003313 0.20307513 0.2699298 0.12924087 0.6602293 -0.50116485 -0.016907213
-0.011286913 -0.23081504 -0.24818373 0.32288715 0.12978163 0.08767905 0.07685224 0.27226457
-0.015347217 0.6684269 -0.09671691 -0.15228942 0.10036452 -0.2456319 0.15387751 0.3160149
0.24794957 0.30010608 0.18078843 0.43935475 0.07694861 -0.035402417 -0.26281732 -0.16603027
-0.30977756 0.3678497 0.31047758 0.13349672 0.23336583 0.0044564973 0.69369745 -0.35128334
0.06531715 0.18729143 -0.11364237 -0.1791887 0.10677894 0.014798476 -0.07011783 -0.29300117
-0.16054815 -0.5990118 -0.11742083 -0.145962 -0.33552772 0.49613437 0.2080123 0.18465291
0.34289214 -0.4976545 -0.17736813 -0.17473853 -0.17460608 -0.3157923 0.4167421 -0.23060785
-0.11822467 -0.04720946 0.27926785 -0.43986264 -0.16078523 0.076633476 0.326944 -0.3876303
0.079084925 0.0606179 0.056045827 -0.3978835 0.34339187 0.32520398 -0.10132349 0.38333675
-0.33666185 0.01542184 0.012516546 -0.2006267 -0.15594648 -0.19151819 -0.14685108 -0.14515083
-0.2382409 -0.15837672 -0.1843964 -0.1918985 -0.051232226 0.15665407 0.025234066 -0.40515938
0.0006136348 0.15269397 -0.3621437 0.42264417 0.038015842 -0.24018344 0.40033415 0.05491347
0.28383684 0.5856925 -0.14367124 -0.165877 0.0036014186 -0.019514129 0.11803172 0.10723859
0.27508864 0.28378916 0.3087367 -0.06561421 -0.2409478 0.08877707 -0.517534 -0.03316561
-0.11150053 0.10403621 0.2871359 -0.11567214 0.0105367 0.39937505 0.4386389 -0.34025332
-0.10159972 -0.23574013 -0.21363354 -0.017260833 -0.035411466 0.24459916 -0.2592487 -0.09170704
0.019201992 -0.030963108 0.10603616 -0.15639994 -0.14947045 0.23726872 -0.3148398 -0.25777602
-0.22768046 -0.67195845 0.29510775 0.3683707 0.64529634 0.13792996 -0.31055865 -0.010109761
-0.11414874 -0.2463765 0.23560154 -0.14667179 -0.14820743 -0.06402142 -0.20396705 0.23696685
-0.16879824 -0.41881824 0.47504428 0.25815547 -0.17173254 -0.17089291 0.3839661 0.19251446
-0.3852331 0.3898626 0.050855577 0.7053863 0.004771154 -0.3165508 -0.2296661 -0.3168648
0.34241015 0.4396104 0.32994187 0.27733633 0.5582563 0.44475883 0.010593216 -0.16242412
-0.29100585 -0.26531982 -0.093502745 0.26018104 0.42185777 0.33443674 0.19304913 -0.29437497
-0.15985677 -0.21948494 -0.13732989 -0.6806628 0.38928938 -0.53197944 -0.45467266 0.43699417
-0.5100322 -0.0054205926 0.56180453 -0.0064847446 -0.05881742 0.056314148 -0.02025198 -0.4433274
0.26334172 -0.2150948 -0.16186428 0.28471062 -0.45890874 -0.047964867 -0.08148595 0.35288084

linear1.bias f4 [256]
00000000: 711f e6be e1c7 15bd f911 853e 023f 24be
00000010: d00b c8bd 8b22 48be 838a 73be abbb 663d
00000020: 1d8c 183c 7542 3d3e 318c b6bb 46bf ef3d
00000030: 1640 27be 9729 84be 0a49 513d b362 b5bd
00000040: 0674 83bd 0025 fbbd 2359 c23d dfde 96be
00000050: a2ae 50be 7fb1 3b3e 1f74 4d3e cc49 b9be
00000060: 49a1 92be d87c 153d f66e 78bd 5a0c d83d
00000070: cec9 183e 374f c53c 6b01 b6bc 57cf 8f3c
00000080: e22b 1dbe cd8e 35be 337f 72be f88e 18be
00000090: 9674 a3be a794 6abe a8bd e13e ee57 babd
000000a0: 2f1b 473d 2c56 54be de66 303e ad1d 2abe
000000b0: b5f1 d93c eb44 04be 7142 9bbe 7614 9abc
000000c0: 9ae7 14be a819 0d3e 663e 68be 7788 ccbe
000000d0: 61fb 68be 4a55 babe 17b4 a4be 6bcd b13b
000000e0: d6d5 29be 9f17 85be cf26 d7bd 3356 f43e
000000f0: 5e04 68bd 89a2 e93e a221 e53e 2c4a 113e
00000100: 289b edbe 8db8 363e b0ba 383e 2e29 9ebe
00000110: 7191 d53e 7c15 183f 0d53 ba3b c88e f2bd
00000120: 2528 5dbe 9e43 93be c9bb 7ebe a99d cb3c
00000130: a7f2 ce3e c1db 8fbe 9919 103e 5ec6 e1bd
00000140: 2e90 723d 6e72 c6bd eda2 8abd e235 9cbe
00000150: d690 dc3c e56c 42be 3e65 3abe 727e 78be
00000160: 3811 8abe bdeb d9bb 57b4 d33d 0663 47be
00000170: 4009 3ebd 8939 03bf 1528 ddbd ad13 763d
00000180: 6ad7 7bbe 52f7 8abe bf61 abbe 70bf 02be
00000190: a370 d0be 1f7e 133f 19dc ec3e 8357 8ebe
000001a0: 0807 b73c 9b7d e93d c2f0 6d3d 9369 20be
000001b0: 0524 21bc b626 ab3e 18e9 63be 5d73 76be
000001c0: 1c13 82be 139b 9ebe 0f65 88be e1b7 babe
000001d0: 358d 08bd a28e eb3e 8586 a1be 9178 50be
000001e0: 7c07 11be 7561 933e fd0b 02be cfa8 ccbe
000001f0: 070b a2bd 6cc3 333f 2597 25bc a2a0 94be
00000200: c823 e43c 48e5 3cbe 9e46 e1bd 2ec9 febd
00000210: ebeb 3abe ce8b 97bd 4f1f ccbe 88ba 7bbd
00000220: 6010 09be a5c5 423e f3a9 dabd 4265 a33e
00000230: 2a69 d93e 84a8 c4be 1bf9 9bbd 93fc 383e
00000240: 384b 0e3d cc4f bebd 92bc d13d 2842 b8be
00000250: 3860 89be a624 42be 33dd e43e 0271 a13e
00000260: 2796 44bd b5c2 9fbe 31d3 bc3d 61b2 f73e
00000270: 5038 04be 1836 5a3e 8764 63be d9be 12be
00000280: f725 da3d 93ef 48be 8da0 413e 4bca f33c
00000290: f733 383e d91f 85be 1685 7a3f 5bb1 31be
000002a0: f0c7 d73e 6c39 823e 4311 8dbe fe5c 1b3f
000002b0: 4f7e 8bbe a55d 95be 433e d93d 68ba b9bd
000002c0: 57d3 863e 63e4 91bd 144d d9be cd9b f93d
000002d0: ad1b 0abd 3d36 dd3e 91ae 853e 55be 08bd
000002e0: 0d6d 193e b742 88be ac72 afbe e080 3cbe
000002f0: 13d8 eb3e d1d6 6fbe c099 133e fec7 84be
00000300: 55e0 0cbd a734 af3d 0cf8 e83d e4c3 7f3e
00000310: ffa1 1c3e 2e14 bdbe 1a5e 9c3e c08d b83e
00000320: 67ec c2bc 872a 8f3e a98e 933e a46a b6be
00000330: 2a79 3abd 6720 e0bd 4075 fe3d ef51 14be
00000340: f950 0cbe f041 e2bc 8729 4ebe cbea 3cbe
00000350: bda5 4bbe e7a0 04bd 4598 d2bd 4ddc e8bd
00000360: f476 e03e d9a4 93be 697c 4c3e 1bb3 97bd
00000370: c1e1 2abe 1ca8 85be 5120 f1bb a2a0 57be
00000380: 9c6a 8f3d 4545 4bbe 9703 da3e e58b bd3e
00000390: 469a e1be 0114 36be 68fe d9be c37f 333f
000003a0: 7344 a5bd 78e1 7c3e 1a46 eebd 6267 5a3e
000003b0: bc3e 513e 6806 1d3d 2ae2 adbc c271 a4be
000003c0: 3bb4 cbbc e4f4 5bbe 609f 10be 169b 4abe
000003d0: a1fd 2bbd 4e03 4e3e 3ab6 1c3e 592f b1be
000003e0: fc99 283e bf2a c5be 1459 d3be 0c0a 923e
000003f0: 5f9b ccbe 1399 363e 7e62 003e 1200 883e
-0.44945863 -0.036567573 0.25990275 -0.1603966 -0.09767878 -0.19544427 -0.23783307 0.056331318
0.009310749 0.18482383 -0.0055709113 0.117064044 -0.1633304 -0.2581298 0.051095046 -0.08856716
-0.06418614 -0.122629166 0.09489658 -0.29466912 -0.20379117 0.18329428 0.20063828 -0.36189115
-0.28638676 0.036496013 -0.060652696 0.10549231 0.14920732 0.024085624 -0.022217473 0.017554922
-0.15348771 -0.17730255 -0.23681335 -0.14898288 -0.31924886 -0.22908269 0.4409001 -0.090988025
0.04860991 -0.20735997 0.1722674 -0.16612883 0.026604513 -0.12916915 -0.30324128 -0.018808585
-0.14541474 0.13779318 -0.22680053 -0.39947864 -0.22752143 -0.36393195 -0.32168648 0.005426099
-0.16585478 -0.25994584 -0.10505449 0.47722015 -0.05664479 0.45631817 0.44752222 0.1418845
-0.46407437 0.17843838 0.18039966 -0.30890793 0.41712525 0.5940778 0.00568617 -0.118436396
-0.21597345 -0.28762525 -0.24876322 0.024855452 0.40419504 -0.28097346 0.14072265 -0.11024164
0.05921953 -0.096897945 -0.06769357 -0.3050986 0.026924532 -0.18986852 -0.18202683 -0.24266985
-0.26966262 -0.0066504166 0.103371315 -0.19471368 -0.04639554 -0.51259667 -0.10798661 0.060077358
-0.24593893 -0.27141815 -0.33473012 -0.1276834 -0.40710935 0.5761432 0.4626167 -0.2780114
0.02234222 0.114009105 0.058090933 -0.15665273 -0.009835248 0.33427972 -0.22256887 -0.24067445
-0.25405204 -0.30977687 -0.26639602 -0.36468413 -0.03333779 0.46007258 -0.31547943 -0.20358492
-0.14163011 0.2878529 -0.12699886 -0.3997254 -0.079122595 0.70220065 -0.010106836 -0.29028803
0.027849093 -0.18446839 -0.10999797 -0.12440716 -0.18254058 -0.073997125 -0.39867637 -0.061457187
-0.13385153 0.19020708 -0.106769465 0.3191319 0.42463046 -0.38409817 -0.076158725 0.180651
0.034739703 -0.09292564 0.10241045 -0.35987973 -0.26831222 -0.18959293 0.44700012 0.3153153
-0.04799476 -0.31203237 0.09219969 0.4837828 -0.12912107 0.21309698 -0.22206317 -0.14330615
0.106517725 -0.1962264 0.18908902 0.029759547 0.17988573 -0.2600086 0.97859323 -0.17352812
0.42144728 0.25434434 -0.27552232 0.6068877 -0.27244803 -0.29173008 0.106075786 -0.09068757
0.26333115 -0.071236394 -0.42441618 0.1218792 -0.0337178 0.43205443 0.26109746 -0.03338464
0.14983006 -0.266134 -0.34267175 -0.18408537 0.4606329 -0.2342179 0.1441412 -0.25933832
-0.034393627 0.085549645 0.11375436 0.2497707 0.15296172 -0.36929458 0.30540544 0.36045647
-0.023794366 0.27962133 0.2881978 -0.35628235 -0.045525707 -0.1094368 0.124247074 -0.1448438
-0.13702764 -0.027619332 -0.20133029 -0.18448941 -0.19887443 -0.03238001 -0.10282949 -0.11370144
0.43840754 -0.28836706 0.19969334 -0.074072085 -0.16687681 -0.2610482 -0.0073585887 -0.2105737
0.07002756 -0.19850643 0.42580864 0.37020794 -0.44063014 -0.17781068 -0.4257691 0.70116824
-0.08069696 0.24695385 -0.116344646 0.213285 0.20434088 0.038336188 -0.021226007 -0.3211804
-0.024866214 -0.21480137 -0.14123297 -0.19785723 -0.041989926 0.20118448 0.15303889 -0.34606436
0.1646499 -0.38509175 -0.412789 0.2852329 -0.3996229 0.1783183 0.12537572 0.26562554

linear2.weight f4 [3, 256]
00000000: 57d5 5bbc d8e6 03bf 0488 463e 7b50 1fbc
00000010: 8d83 0ebc 3b8e b3bd d096 babd e1c8 9b3d
00000020: 0c9a 68be 17d3 9a3e a39b 5dbe 74e1 57bc
00000030: 19dc 6cbe a5c6 42bd da08 f5bd c4c2 d2bd
00000040: 83ed 58be fd9a 9bbd e881 b43e dc14 6cbe
00000050: cf16 91be 2fbc e6be 370f 87be dca9 8e3e
00000060: 96fe 333d 67aa 123d d0f9 cfbd 5c60 d1be
00000070: 7031 b53e 1ea3 a5bd 231b 413e 46ba 48bf
00000080: 3abc 25be b8d0 15bf 5649 d93c b219 97be
00000090: f435 8bbe 70b3 843b 1d3e b73e 4797 9e3d
000000a0: 54ff 8dbe 1c33 a5be 5f98 fa3e ba12 033d
000000b0: 3ea7 ab3e 2a31 01bf e172 243c 4232 1dbf
000000c0: 22d6 81bd 89e7 263d 5800 82bd f0bd 2dbe
000000d0: 515a d13e 2263 5cbe f8ae 09be 7019 12bf
000000e0: 6945 02bf 145c 22be f90d 43bf b8a8 983e
000000f0: 6805 fb3e f52e ae3e 06bf c13e 071e 86be
00000100: 587a 68be 2259 8c3e 686f b13e b616 f8bd
00000110: a9ec d53e 538b b13e 0433 5bbc b570 2b3d
00000120: e6db 88bd f6db 67be d8a8 75be ea6a c83e
00000130: 4c4d 943e 5fbb c9bd 44d6 0e3f ac6c 03be
00000140: 45b9 43bf 19b2 933e 8e1b 0ebe 86d9 c9be
00000150: 1671 ebbe 3a41 cf3d ce90 373e 9a59 02be
00000160: 2b93 7dbe 6c89 be3d 6a6c 183e 0466 483d
00000170: 22b2 e0bc c39f 07be 971c 0cbf e880 a63e
00000180: 1c48 4bbe 4a47 7abd d9d9 f0bd 821f ddbc
00000190: 48a2 c5bd 448e 8e3e e7bc 543e cb50 003d
000001a0: 66f3 7c3e 6781 473e c5d6 20be d8f0 c6bd
000001b0: f335 c8be 9553 df3e b12b b0bd 7d62 9a3c
000001c0: 92d5 07be e068 2bbe 2089 f1bb 626c 0fbd
000001d0: 8b97 2cbf 58c2 b63e 1246 513d 6473 f8bd
000001e0: b1d3 eb3c d41b 2f3e 3605 2bbd 575f 81bc
000001f0: 5f9b d73c 049f c83e b788 adbe 9221 963d
00000200: 9f6e 0abf 0aef 13bb 0d23 79bd 20d0 39bb
00000210: 0a05 563d e533 1a3d bfa4 40be a3fe 613d
00000220: 7cc7 06bf ee0d e93c 51d9 183c 7f04 7c3e
00000230: 35b3 803e d9af b7bc 4b88 bcbd 9c56 993e
00000240: 5f36 613e fa17 98be a773 5b3e 132f 5bbd
00000250: 6cd4 89be 45b6 e4bc 1dc7 9a3e b95a f73d
00000260: 1b94 c0be af9d 8bbd 2128 c0bd a5f7 8a3e
00000270: 54aa 7bbd 5728 be3e bef2 bebd dd02 183b
00000280: 654e 9bbe 550d 1ebe 76cb 5a3d 5344 0b3d
00000290: 0d1b 3d3e ba52 98bd 0fb2 913e 227e 8f3c
000002a0: dd00 1a3e 28dd 713e d12b f2ba ba86 843e
000002b0: 1bae 21bc e533 58bd 7998 a23c e0cf b9be
000002c0: f6f3 88bd a862 00bd de6d 91bd 176e 13bf
000002d0: 917b 40bf 150c 423e 2478 243e 483d d33e
000002e0: d547 463e 900e 2fbd 81d2 dabd e56a 90bd
000002f0: 296b be3e eace f1bc 0915 533e 9606 61be
00000300: 62e6 cf3e 65f8 d03d 4d50 84bd be8a bb3e
00000310: 337b e23e f1ee 9dbe 9356 d1be 4bda 3f3e
00000320: 9f0a d73d a73f 6f3e 7b49 803e 087d 0a3d
00000330: aaea 20bd 6224 30be 1877 7bbe 9f22 ad3c
00000340: 2cb9 4ebe 8a00 a23c 0df2 3dbc d04b abbd
00000350: 2d46 b6be 970d 22bf a333 d2be a997 92bc
00000360: 7bb9 d03d 4416 89be b381 253d f283 fa3c
00000370: cfc6 cb3e 9cc7 6c3d 337d 8bbe 1dcb 1d3c
00000380: 8a70 913e 223a 683d 61c7 773e 58d4 653e
00000390: 6666 3cbe d433 b6bd 419e 2b3e 5fd3 c23e
000003a0: c123 a03e 06df e23d c46d 61be 50fa e53d
000003b0: 2407 b43e 1519 c13d 0b39 56be 660f eebd
000003c0: c364 2cbe d6ca a83e b16d 05bd dcd6 27bd
000003d0: 3be4 9a3c 8ca4 d23d c0f2 b63e 8f41 443c
000003e0: 1d2b ac3d 724d 293d 1184 003c 7a88 8a3e
000003f0: fa39 99b9 b964 d7be 991a efbd f4eb ff3e
-0.013417563 -0.51524115 0.19387823 -0.009723778 -0.008698356 -0.08767363 -0.091107965 0.07606674
-0.22715014 0.30239174 -0.21641402 -0.013176311 -0.23130836 -0.047552723 -0.11964579 -0.10291055
-0.21184354 -0.07597921 0.3525536 -0.23054832 -0.28337714 -0.45065448 -0.26378796 0.27863967
0.043943964 0.03580704 -0.1015507 -0.4089383 0.3538928 -0.08087753 0.18858008 -0.7840923
-0.16185084 -0.58521605 0.026524227 -0.2951179 -0.271896 0.004049711 0.35789576 0.077436976
-0.27733862 -0.32265556 0.48944375 0.03200028 0.33526033 -0.50465643 0.010037155 -0.6140481
-0.06339671 0.040748153 -0.06347722 -0.16966987 0.40889218 -0.21522191 -0.13445652 -0.57070065
-0.5088716 -0.15855438 -0.76193196 0.29816222 0.49027562 0.340202 0.37841052 -0.26194784
-0.2270292 0.27411753 0.3465531 -0.12113707 0.4178212 0.34676608 -0.013378862 0.041855533
-0.06682567 -0.22642502 -0.2399019 0.3914407 0.28965223 -0.09850191 0.55795693 -0.12834424
-0.76454574 0.28846815 -0.13877699 -0.3942377 -0.45984715 0.10119863 0.17926332 -0.12729493
-0.24763171 0.09303555 0.14885107 0.048925415 -0.02742869 -0.13244538 -0.54731125 0.32520223
-0.19851726 -0.061103143 -0.11760301 -0.026992563 -0.09650093 0.27842915 0.20775186 0.03132705
0.24702224 0.19482957 -0.15706928 -0.09713906 -0.3910366 0.43618456 -0.086020835 0.018845791
-0.13265064 -0.16739225 -0.007371083 -0.03501547 -0.67418736 0.35695148 0.051092215 -0.12131384
0.028787466 0.1710046 -0.041753016 -0.015792532 0.026319204 0.3918382 -0.33893368 0.07330622
-0.54075044 -0.0022572898 -0.060824443 -0.0028352812 0.0522509 0.037647147 -0.18812846 0.05517448
-0.5264814 0.028449025 0.009329156 0.2461109 0.25136724 -0.022422718 -0.09205683 0.2994889
0.21993397 -0.29705793 0.21430837 -0.05351169 -0.26919878 -0.027918944 0.30230036 0.12077851
-0.37612996 -0.06817185 -0.09382654 0.27142063 -0.061441734 0.37140152 -0.09323643 0.0023195066
-0.30333248 -0.15434773 0.05341669 0.034000706 0.1846735 -0.07437654 0.2845616 0.0175162
0.15039392 0.2361952 -0.0018476193 0.25884038 -0.00986817 -0.052783865 0.019848095 -0.3629141
-0.06687157 -0.031344086 -0.07101034 -0.5758986 -0.7518855 0.18949921 0.16061455 0.4125769
0.19363339 -0.042738497 -0.10684682 -0.070516385 0.37191132 -0.02951761 0.20613493 -0.21975169
0.40605456 0.102036275 -0.06460629 0.3662929 0.4423462 -0.3084636 -0.40886363 0.18735616
0.10500073 0.23364125 0.2505606 0.033810645 -0.039286293 -0.17201379 -0.2455715 0.021134673
-0.20187825 0.019775648 -0.011593354 -0.083640695 -0.35600415 -0.63301986 -0.4105502 -0.017894583
0.101916276 -0.267748 0.040406894 0.030580495 0.39800116 0.05780755 -0.27243957 0.0096309455
0.28406173 0.056696065 0.24197151 0.22444284 -0.18398437 -0.08896604 0.16759588 0.38051888
0.31277278 0.110776946 -0.22014529 0.11229384 0.35161698 0.09428612 -0.20920198 -0.11624031
-0.16835313 0.32967252 -0.032575313 -0.04097639 0.018907657 0.10285291 0.3573208 0.011978521
0.08406661 0.041333623 0.007843987 0.27057248 -0.0002922563 -0.42069033 -0.11674995 0.49984705

linear2.bias f4 [3]
00000000: 330f 8a3e daf1 083e 9f7f 083e
0.2696472 0.13373509 0.13329934
