model/model.pth (torch, 16799 bytes, 4 tensors)

linear1.weight f4 [256, 11]
00000000: b390 b4be e90b 9fbe 84a2 6ebd 8fc6 fabd
00000010: 8cf6 63bd e2e9 d03d 9a10 a6be 7bed e3be
00000020: ceb1 1cbe fdd2 113d 6c99 4dbd 4e23 6d3d
00000030: 2ed8 46bf 68da fdbd 0f92 26be ba94 95be
00000040: c7cc 95be c179 68be 9d58 3f3e 8082 bc3e
00000050: 0438 e43e 4f68 d53e d6f9 803e 916e 6fbe
00000060: 214c a7be e237 bfbe 5183 aabd b674 a23e
00000070: 01e4 8ebe 77f2 a8be b203 f33d 0321 7fbe
00000080: 2d30 ca3d 8563 d2be a8a9 08bf 49e6 dfbe
00000090: c974 143e 9336 433e 74b5 76be 7d17 7cbe
000000a0: d132 3e3e 6e39 4e3e d51f 33be dc71 0ebe
000000b0: 33fa a8be 4586 8c3d ba68 e7bd b4e6 fa3d
000000c0: fe0d 2a3e 49bd 033e 8697 03bf 713d 5b3d
000000d0: 1541 293d c791 8ebe 3198 07bf a358 4ebe
000000e0: c445 5a3e c612 78bd 6699 f9bc 614a c8bd
000000f0: a52a cdbd 7c0f 9e3b 4fd3 9fbe 3220 68be
00000100: fbed f93b 82d5 bcbd 374a e53e 3341 a43c
00000110: 26ce 22bd 7f73 973e d9e0 be3c cbfd c3be
00000120: a283 8abe 0718 34be b7b5 68bc d45f e43e
00000130: 536a 9f3e 66d8 25be 1e96 eebe 9971 99be
00000140: d676 d03d e569 13be e345 123e 769a aebe
00000150: 42ca 4dbd a312 9f3e c2e6 08bd c88d e8be
00000160: 7e8a a13e 0ed8 ba3e 42de 4a3e 5bc9 92be
00000170: 3674 04be 22b9 b2bd 6517 b8be 792e 853e
00000180: bd1f 183e 60fa 653e 7950 bf3e f06d 143f
00000190: 82a5 c5bd 12a7 173e d70c 06be ee7c 86be
000001a0: 0056 d53e 5a1c 4ebc 7e73 bdbd f330 a23e
000001b0: 3924 c4be a92c d33c 7c57 8fbe c503 853c
000001c0: 44a2 94be 24b8 5cbd 15da da3c be93 c13d
000001d0: b36d 0abe 0c95 a63d 04f2 53be ef16 fa3d
000001e0: 357b 93be 8a47 e9be e9e5 793d ce85 1f3f
000001f0: eaa6 5f3e 19a2 ca3d ea0a 353e 4062 29be
00000200: 5a36 52be c0b8 493e 7b30 933d b842 593c
00000210: 69af 66be f5f0 8cbe 62fd 5abc 7e04 363e
00000220: f3a9 6cbe 5720 0c3d 1f7f 0b3d 1874 913d
00000230: bc86 b83d fc9f adbe b5d3 3fbd cd93 a9be
00000240: ace1 e43e df6f 073e 0c93 30be d919 a5bd
00000250: 6dba 1dbf 4cb0 63bc 7db5 df3e e4d9 a33e
00000260: ced3 073f 9071 e93d 4e34 eebd d308 a83d
00000270: d254 96bd 2877 a0be f6bf 8fbe b06a 753e
00000280: f8c0 bdbe d148 f6be 49df 0bbf b5fe 063e
00000290: e5dc 01bf 9afd f5bd dfba ba3d 76f2 0bbe
000002a0: 4420 86be b6dc b5bc 5c0c 3fbe a384 94be
000002b0: 477a a33c 5946 2ebe acae 92be 2345 d63d
000002c0: 43ab 70be 13fa cd3c d597 913d 57bf 0fbf
000002d0: b0e0 a0bd 8b07 8cbe 189b 443e ed08 68be
000002e0: 2239 13bf 9f72 cfbe 91e4 943e 5866 503d
000002f0: a7d2 9dbe 1ccf 50be 59a6 56be 6825 9fbd
00000300: f80a d2bc 33a0 70be 70c0 b4be 46c2 3ebe
00000310: 2275 97bc 6a55 27be 337b c5be 8e5b 6a3e
00000320: 5326 7cbd b4b7 88bd ccfd 5c3e 94dd 833c
00000330: 4972 2f3e d23a 82be 2411 863c 3090 efbd
00000340: 63e4 183e 4b50 afbe dcef e03e 832b 2abe
00000350: f371 b2be 5823 02be 62c1 813e 5f5a 4dbe
00000360: c7ca e13e fbf4 06bd e1c7 17bf bbf4 9fb9
00000370: cb6c c63b 1dec 36be 458d 2cbb 7a4c 89be
00000380: 344b c2bd a41a 1ebe 18e3 81bd 6e82 993e
00000390: fb5c 653e 5f86 843e 80a5 b63e 571d e63c
000003a0: aa13 f6be 2546 cf3c 1066 28bd f4ae 003d
000003b0: d7fe 1bbd 54a9 b0bd b1f9 0cbe 0bc2 f4bd
000003c0: 780f 6c3e 8f3e 4e3e ef84 d23c 3b01 003e
000003d0: 38d8 b3bd 0060 2dbc 156c e13d 7b54 73be
000003e0: 6592 7239 b50e 24be cf3f a9bd 52c0 9f3a
000003f0: eaec 10be 515e 2a3c 4e18 58be b592 e63e
-0.35266647 -0.31063774 -0.058260456 -0.12244903 -0.055655047 0.102008596 -0.3243454 -0.4451712
-0.15302202 0.035601605 -0.050195143 0.057894997 -0.77673614 -0.12395173 -0.16266654 -0.29215032
-0.29257795 -0.22702695 0.18686147 0.36818314 0.44573987 0.41681144 0.2519061 -0.23382021
-0.3267527 -0.37347323 -0.08325828 0.31729668 -0.27908328 -0.32997486 0.11865939 -0.24914937
0.0987247 -0.41091552 -0.53383875 -0.4373038 0.14497675 0.19063787 -0.24092656 -0.24618335
0.18574072 0.20139095 -0.17492612 -0.13910621 -0.33003387 0.068615474 -0.11299272 0.122510344
0.166069 0.12865175 -0.5140308 0.053525392 0.041321833 -0.27845594 -0.529666 -0.20151
0.21315676 -0.06056478 -0.030468654 -0.09779812 -0.100178994 0.004823623 -0.31215903 -0.22668532
0.0076272464 -0.09220411 0.44783184 0.02005062 -0.03974738 0.29580304 0.023300575 -0.38279566
-0.27053553 -0.1758729 -0.01420348 0.4460436 0.31135806 -0.1619583 -0.46598905 -0.2996948
0.10178916 -0.14395864 0.14284472 -0.3410222 -0.050241716 0.31068906 -0.033423193 -0.4542067
0.31550974 0.36492962 0.19811347 -0.28669247 -0.12934956 -0.087267175 -0.3595535 0.26012018
0.14855857 0.22458792 0.37366083 0.5798025 -0.09650709 0.14809826 -0.13090836 -0.2626719
0.41667175 -0.012580002 -0.09250544 0.3167797 -0.38308886 0.025778132 -0.27996433 0.016237149
-0.2903005 -0.053886548 0.026715318 0.09452008 -0.1351841 0.08133897 -0.2069779 0.122114055
-0.28804937 -0.45562392 0.061010275 0.62313545 0.21841016 0.09894199 0.17679945 -0.16541386
-0.20528546 0.19699383 0.07186981 0.013260536 -0.22527851 -0.27527586 -0.013366075 0.17775151
-0.23111705 0.03421053 0.03405678 0.07102221 0.090100735 -0.3391112 -0.04683276 -0.33120576
0.44703424 0.13226269 -0.17243594 -0.08061571 -0.6161259 -0.013897013 0.43693152 0.32002175
0.53057563 0.113986135 -0.1163107 0.08204808 -0.07340397 -0.3134091 -0.28076142 0.2396648
-0.37061286 -0.4810243 -0.5463758 0.131831 -0.50727683 -0.12011261 0.09117674 -0.1366671
-0.26196492 -0.02219997 -0.18657058 -0.29007444 0.019955767 -0.17019023 -0.2864889 0.104624055
-0.23502831 0.025143659 0.07109038 -0.56151336 -0.07855356 -0.27349505 0.19199789 -0.22659655
-0.5750905 -0.40517136 0.29080632 0.050878853 -0.30824777 -0.20391506 -0.20961894 -0.077708066
-0.025639996 -0.23498611 -0.35303068 -0.18628797 -0.01848847 -0.16341177 -0.38570556 0.22886488
-0.061559986 -0.066756636 0.21581191 0.016096868 0.1713344 -0.254355 0.016365595 -0.116974235
0.14930873 -0.34240946 0.43932998 -0.16618161 -0.3485256 -0.12708795 0.25342852 -0.20054005
0.4410002 -0.032948475 -0.59289366 -0.00030509182 0.0060554496 -0.17863508 -0.002632932 -0.2681616
-0.09487 -0.1543985 -0.06342143 0.29982322 0.2239875 0.25883767 0.3567314 0.028090162
-0.48061877 0.025302002 -0.04111296 0.03141685 -0.03808483 -0.08626047 -0.13767125 -0.11951073
0.23052776 0.20141052 0.025698153 0.1250047 -0.08781475 -0.01058197 0.11006943 -0.23762695
0.00023133455 -0.16021235 -0.08264124 0.0012188053 -0.14152876 0.010398463 -0.21103022 0.45033804

linear1.bias f4 [256]
00000000: 3ced 11be 9ebf 973d 0d5f cdbc 6f71 05bd
00000010: 8e4d d73e 4fb8 15be 55b5 94bd e5f5 07be
00000020: 0dc7 86bc ce01 4ebd 6967 bdbe 8eed 94be
00000030: 9efc 99be f53c f7bd 9624 fd3d f430 36be
00000040: a36b 003b fb57 a6bc 53a7 87bc 6135 843d
00000050: 0ca8 2abe 7cc5 b3be a8f9 c6be de6e 7cbd
00000060: e905 c43e ab0f bdbe 2785 1ebe 8795 72be
00000070: 757e a63d 1968 d03c e186 27be 0ad1 32bd
00000080: 46e8 4bbe cf81 9ebe db5b 3dbc 90ad 8ebe
00000090: 035c 0b3f e0b3 81bd 02d2 97be d0db ab3d
000000a0: d05c 943d 27b4 573d 9ec9 07be 4e27 e9bd
000000b0: 2697 31be 51b7 bc3e 32a3 653d bbe0 07be
000000c0: 8810 213e 2ea9 1ebd 97e2 8abe b31c 34be
000000d0: b0ca adbe 0b11 5fbe 899f b03e b670 44bd
000000e0: 3af8 4f3e 9960 ee3c d0b7 babe 0c3f a4be
000000f0: c167 f0bd 78d6 e2be 9d81 a4bd 5a1f ed3e
00000100: 4593 c7bd 74fe 47be 3039 2abe 12c8 52bd
00000110: 62f4 1bba 641e 12be cfa8 32bd 8f12 4abe
00000120: e9d8 85be 3de2 21be 874e 553e 9192 473e
00000130: 530d 1dbe 3afb 13be 3d12 8bbe 7d15 87be
00000140: 1959 c0be 604b 793d e32d 91be c94a fbbd
00000150: 3ef5 ddbb 2719 733e 5945 cf3d 97aa dfbd
00000160: d583 af3d 0f81 35bd 41ae b2be 32ef 833c
00000170: a926 033d f5e8 88be bf79 bcbe d4cc 3abe
00000180: ea3a 0dbd ae94 d7bc 1af2 7dbc fcea edbd
00000190: c909 babd c818 0bbe 3d43 b3be b966 3dbe
000001a0: 9c2e 27be 8339 06be 98c3 6ebe 8140 f9bd
000001b0: 36f7 0bbe cdfb 4e3e 41fa 58be b081 403d
000001c0: 1dd6 803d 6863 86be d1e0 243e 3c78 4bbe
000001d0: 34cb 2b3e 7cc7 b33e 1e85 693e 6f4b 92bd
000001e0: a767 54be c156 62be f9a2 983d e118 9d3e
000001f0: dacb 8ebe ddfa 32be 1e68 2c3e 7361 00be
00000200: aba8 acbd da50 2d3e e28b 59bd 8b00 463e
00000210: 7a37 43bd 27c0 a13d 28b1 7b3c 4497 033e
00000220: 1bfe 6bbe b621 9e3e 4c2d a9be 488c 493c
00000230: 4896 61be 6409 21be ad7f 94be 746e fbbd
00000240: 76cf 6fbe decf 0a3d a3f0 abbe 1b48 453d
00000250: 9eea 31be 4716 a8bd 8f5b 6cbe 0e9d 173e
00000260: e27d 14be e29b 2b3e 20c9 2fbd 73ee 9abd
00000270: e4aa cb3b abbd b83d 7d33 f1bc f126 0b3e
00000280: 03da d0bc 9598 9dbd f889 b73d 46ca 203e
00000290: ce34 c2be ce7a 95be 0a19 06be 8acd 7f3e
000002a0: 09c8 a7be 568a 523e deee 63bd 7021 46be
000002b0: 72f1 6e3c 3060 8dbe 9c38 d9be 6e9f ae3e
000002c0: 7672 92be 207f c8bd f709 d6bc 2d5f 3e3d
000002d0: 7de6 b43e 377a 5bbe dbb0 0f3e 083a 94be
000002e0: a0d8 f5bd 9d7c 84be 35ae 91be 1d3c 24be
000002f0: 2464 413d a78f 91be 0b9a d0be 1978 af3e
00000300: 9dd1 8fbe ff1a 9bbe 3f59 ae3e 015e 6e3e
00000310: 6613 67be 6aa6 84be 6e3e 82be f962 fd3d
00000320: c36d a7be 3437 f7be f18e 553e 1111 573d
00000330: ed0a 36be 93b4 ea3c 3cd8 a2be d054 cbbc
00000340: cf47 90be beda 9bbe dd7b 49bc 625c 86bd
00000350: 6d2b 26be 19be 0bbe 53b3 62be 1c4a aabe
00000360: 0266 98be 3a0e 8fbe ab8c 953e dd1a 593d
00000370: 17e3 933d f4c2 6abd d29f a3be eb21 90be
00000380: 897f 55be c028 42be d2c9 c8be d259 78be
00000390: 3aad 70be 73a9 b43d c672 43be c5f2 debc
000003a0: da8b b7bd 1370 cabe 4d68 6a3e 51d8 bfbd
000003b0: 5b3f d4be 4999 86bd 936e 07bf 58f1 b7be
000003c0: 360f aabe 7516 e63a c207 29be 3772 033e
000003d0: 101b 863c 526c f2bd 87f2 46be 7799 5cbe
000003e0: 0840 c1be 9e9d 87be 9eef 9cbe 0ef1 66be
000003f0: b5ef 0e3e 38fa b83d 6cb4 533d bb31 3abe
-0.14250654 0.07409595 -0.025069738 -0.03257888 0.42051357 -0.1462109 -0.07261149 -0.13277395
-0.016452337 -0.05029469 -0.36992958 -0.2908749 -0.30075544 -0.120721735 0.12360494 -0.17792112
0.0019595406 -0.020305624 -0.016559279 0.06455494 -0.16665667 -0.35111606 -0.38862348 -0.06162917
0.3828576 -0.36926016 -0.15480481 -0.23689853 0.081295885 0.025440263 -0.16360046 -0.043656386
-0.19912824 -0.3095841 -0.011557545 -0.27866793 0.54437274 -0.063331366 -0.2965241 0.08391535
0.07244265 0.05266204 -0.13260505 -0.1138445 -0.17342815 0.3685861 0.05606384 -0.13269322
0.15728962 -0.03873556 -0.27126 -0.17589073 -0.339437 -0.21783845 0.34496716 -0.047959052
0.20309535 0.029098796 -0.36468363 -0.3207935 -0.117385395 -0.44304252 -0.08032534 0.46312982
-0.09744886 -0.1953066 -0.16623378 -0.051460333 -0.00059491966 -0.14269406 -0.04361802 -0.19733642
-0.26142052 -0.1580896 0.20830737 0.19489504 -0.15337114 -0.14451304 -0.27162352 -0.26383582
-0.37567976 0.0608629 -0.2835532 -0.122701235 -0.00677362 0.23740064 0.10120649 -0.10921209
0.08570067 -0.044312533 -0.3489857 0.016105268 0.03201929 -0.26740232 -0.36811635 -0.18242198
-0.034480013 -0.026316013 -0.015499616 -0.11617085 -0.090838976 -0.13583672 -0.35012236 -0.18496217
-0.16326374 -0.13107876 -0.233168 -0.12170506 -0.13668522 0.20213242 -0.21189214 0.04699868
0.06290839 -0.26247716 0.16101386 -0.19870085 0.16776735 0.35113132 0.22804686 -0.07143294
-0.20742665 -0.22103406 0.074529596 0.30683044 -0.278899 -0.17478509 0.16836593 -0.12537174
-0.08430608 0.16925374 -0.05311192 0.19336145 -0.04766033 0.07897978 0.015362062 0.12850672
-0.23046152 0.30885094 -0.3304237 0.012301512 -0.22029984 -0.15726238 -0.2900366 -0.12276927
-0.23418984 0.033889644 -0.3358203 0.04816447 -0.17374656 -0.08207374 -0.23081802 0.14806005
-0.14501145 0.16758683 -0.042916417 -0.07565012 0.00621544 0.09020551 -0.029443497 0.13589074
-0.025494581 -0.07695118 0.08961862 0.15702161 -0.37930912 -0.29195255 -0.13095489 0.2498075
-0.32769802 0.20560583 -0.055647723 -0.19348693 0.014583932 -0.27612448 -0.42426002 0.3410601
-0.28602952 -0.09789872 -0.026127798 0.046477485 0.353321 -0.2143334 0.14032309 -0.28950524
-0.120042086 -0.25876322 -0.28453222 -0.16038556 0.047214642 -0.2842991 -0.40742525 0.34271315
-0.2808961 -0.30294034 0.34052464 0.23278047 -0.22565994 -0.25908214 -0.25438255 0.12372393
-0.3270093 -0.48284304 0.20855309 0.05250651 -0.17777605 0.028650558 -0.318056 -0.024820715
-0.28179786 -0.30440325 -0.012297598 -0.065605894 -0.16227503 -0.13646735 -0.2213872 -0.33259666
-0.29765326 -0.27940542 0.29208884 0.053004134 0.07221048 -0.057314828 -0.3195787 -0.28150877
-0.20849432 -0.18960857 -0.39216477 -0.24253014 -0.2350358 0.088213824 -0.19086751 -0.02721537
-0.089622214 -0.3953863 0.2289135 -0.09367431 -0.41454586 -0.065722056 -0.529031 -0.35926318
-0.3321473 0.00175543 -0.16506866 0.12836538 0.016370326 -0.11837067 -0.19428454 -0.21542917
-0.37744164 -0.2648744 -0.30651563 -0.22552893 0.13958628 0.090321004 0.051685736 -0.18183033

linear2.weight f4 [3, 256]
00000000: b9b2 4b3b ca53 6fbd 14e4 b7bc 2cbb b03d
00000010: 3024 c23e 8780 29bd f864 bdbe 3c80 dcbc
00000020: 4571 8cbd ef40 54be 75da 663c 76a4 1c3e
00000030: c6d9 8e3b 6f0b fdbd 22e4 5c3e 3e0b aa3d
00000040: 19b5 883e 865a a9bc c1f2 253e 96b3 0cbe
00000050: c577 6cbd 94e9 433c 6465 25bc 339a bd3d
00000060: d205 6f3e 8490 66bd 946c f43c 39f7 e8bd
00000070: 0197 01be edc9 e43d eee6 233c e8ba 86bc
00000080: 33fc 87bd 900c 56be 5458 193e 5a31 46bd
00000090: a20d cb3e 8088 853d 880e d83c aca9 d93d
000000a0: 353e bdba 3824 123e b103 7abc bcf1 e9bc
000000b0: 9365 9cbd 543d 483d fcea 523e 914c ad3c
000000c0: dd8e 38bd 18b6 0abe f084 3b3c 4030 3abd
000000d0: bd9b 27be d3fc 0f3e ec55 f63e 278e e93c
000000e0: 4cc5 813e 8f26 2abe 22e4 5abb e921 36be
000000f0: 66a9 b33d aa20 453d 8c35 b73c 744e a13e
00000100: 34ad c83c 17c5 61bd 778e 15be 9a2d 463e
00000110: eab1 f0bd 0dad 19be 48b0 08bb 616f f13c
00000120: 9b98 07bd 2ec8 8fbe 2d55 243e 51c3 b43d
00000130: babb bebe c0bc 0abe 4ba1 253d e326 37be
00000140: 8e2b 8ebd 37a8 133d bfbc c6be 6e32 c3bc
00000150: 7db0 c23c 0a5a 003e fcec 8cbc 5ff6 35bc
00000160: 2a82 33be cd2d 88bd 22aa f33d 11d8 b43c
00000170: a66c 223c b0fc 0e3e 8376 e53b ae4e e43d
00000180: 066b ccbd 4ede 2abe d5af 1fbe df1f ecbb
00000190: 079f 74bd eddd 92bb 5a84 8cbd 9e2d 5a3d
000001a0: a49d 473b f0c3 50bd eeda f4bd 6387 873c
000001b0: 2092 b8be 1597 393d 9500 febc f139 2dbe
000001c0: 6dac 9bbe 3ae7 013d ccbc df3d 1e2a 72bc
000001d0: 1fe9 813d e23f ae3e af09 893d ec93 46be
000001e0: 43a3 113d f98e debe b7ac 74bd 1ac4 a93e
000001f0: 30bd a43c 3582 313e 943c bc3e 51be f7bd
00000200: 5334 e4bc a096 e83d 80bf 2bbe 40d0 393e
00000210: 09f3 8b3e 4df7 51be 3fe6 e5bc 60b1 753e
00000220: 4d4c 4ebe e4ce 4f3e bfb7 7f3c bb00 543e
00000230: 154f 183d 3478 90bc c8b2 893d 2d98 b5be
00000240: 0690 663e ea9a 933e e0d6 673b 4d71 6abe
00000250: 26bc 433e 84c2 33bc 1f7e 693c 4137 653e
00000260: c6fa 493c 8c6c 833e a768 dabe 20c2 cabc
00000270: eed5 4dbd 2e45 18be 8566 30bd 4f03 633e
00000280: fd07 b0be bbb3 923d 9ad2 763e 164e 2abc
00000290: 0a5c aebd f848 ebbb 68a7 11bd 27ce 3c3e
000002a0: beee 9dbd 5156 1f3c db5c 3e3d d00a e0bd
000002b0: 2f85 803e 87b2 25bd 47ee 3cbc 2016 333e
000002c0: 54d3 f4bc 1a51 9dbd cfdc 1a3d 9e8b 473c
000002d0: 7d70 153e bed9 25bd bbbd 083e 5c18 8dbd
000002e0: f6e4 41be 6f46 eabc d235 6a3d 376d ef3c
000002f0: eeb6 5abd 6578 313d c5ea 8cbd 23ad 963e
00000300: 9233 05bf 0fef 41bc bce4 613e ecd0 313e
00000310: 582e 97be 052d 80be d5c9 2fbc 2727 293e
00000320: fb8f 173d 89c3 003e 3dd4 e03d 5e85 8c3d
00000330: 34c6 e5be 4ea0 0a3c 14cc be3d 5748 bb3d
00000340: 9bb1 74bd 9fb4 253c 1bba 32bd aa2b 48be
00000350: 42b1 d23c 6b8f e4bd 416d 9ebd 1470 aeba
00000360: 172c ca3c a710 86bc bff6 b43e fa46 873e
00000370: 091c d33d d46b 8c3e 4b42 8b3d ca1c 5d3b
00000380: 42d0 aebd 57c5 68bd 55f5 0abd 6b12 833e
00000390: 4920 53bd 8280 783d cd8a 073d 4c38 bfbd
000003a0: 503d 11bd 3d76 f43d c0c5 213f 5612 253c
000003b0: 9dff 40bb 2a0a 4b3d d109 ab3d 4b0e 9eb8
000003c0: c1cd 573b da15 933c 432b 3cbe 847d 5c3e
000003d0: 0ccf fabd 7c8d 463b 039b fbbc 44f0 49be
000003e0: ae60 643c 0c7c 9cbd 2e96 6c3e be0c dfbc
000003f0: dff4 d23c 819d 933d c8cb 11bf e46e 8fbd
0.0031081869 -0.058429517 -0.022447623 0.0862945 0.37918234 -0.04138234 -0.36991096 -0.026916616
-0.06857542 -0.20727895 0.01409017 0.15297112 0.0043594567 -0.123556964 0.21571401 0.083029255
0.26700667 -0.020673048 0.16205885 -0.13740382 -0.05773141 0.011957545 -0.010094974 0.09257927
0.23342064 -0.056290165 0.02983693 -0.11375279 -0.1265526 0.11171327 0.010003788 -0.016446546
-0.066399 -0.2090323 0.14975101 -0.04838691 0.3965884 0.06520176 0.026374117 0.106280655
-0.0014438095 0.14271629 -0.015259669 -0.02855765 -0.07636561 0.048886612 0.20597452 0.021154674
-0.04505812 -0.13546026 0.011445269 -0.04545617 -0.16368003 0.14061289 0.48112428 0.028510166
0.25345838 -0.16616271 -0.0033400138 -0.17786373 0.087725446 0.048126854 0.0223644 0.31505167
0.024496652 -0.0551196 -0.14605127 0.19353333 -0.117526844 -0.1500742 -0.0020857025 0.029472055
-0.03310452 -0.28082412 0.16048117 0.08826316 -0.372526 -0.13548565 0.040437024 -0.17885928
-0.06941901 0.036049094 -0.38815877 -0.023827758 0.023765797 0.12534347 -0.017202847 -0.011106103
-0.17530122 -0.06649361 0.11897685 0.022075685 0.009913599 0.1396358 0.007002653 0.111478195
-0.099813506 -0.16686365 -0.15594418 -0.007205948 -0.059721973 -0.004482022 -0.068611816 0.05326616
0.0030458951 -0.05096811 -0.1195582 0.01654405 -0.36048985 0.0453101 -0.031006137 -0.16916634
-0.30404988 0.031714655 0.10924682 -0.014780549 0.063432924 0.34033114 0.066913 -0.19392365
0.03555609 -0.43468454 -0.059735026 0.33157426 0.020109743 0.17334826 0.36764967 -0.12096847
-0.027856981 0.113568544 -0.1677227 0.18145847 0.2733386 -0.20504494 -0.028063891 0.23993444
-0.20146294 0.20293766 0.015607773 0.20703404 0.037184794 -0.017635442 0.06723553 -0.35467663
0.22515878 0.28829128 0.0035375878 -0.22894783 0.19114742 -0.010971669 0.014251261 0.22384359
0.012327855 0.25668752 -0.42657968 -0.02475077 -0.050252847 -0.1487014 -0.04306652 0.22169231
-0.34381095 0.07163187 0.24103776 -0.010394594 -0.08513649 -0.0071803294 -0.03556004 0.18438016
-0.07711552 0.009725169 0.046475273 -0.10939562 0.2510161 -0.04045346 -0.011531419 0.17488909
-0.029885925 -0.076814845 0.037808236 0.012179283 0.14593692 -0.04049086 0.13353626 -0.06889412
-0.18934998 -0.028598038 0.057180233 0.029226882 -0.05339711 0.043327708 -0.06880716 0.29428968
-0.52031815 -0.011836781 0.22059911 0.17364854 -0.29527545 -0.25034347 -0.010729273 0.16518842
0.037002545 0.1257459 0.10977981 0.06861375 -0.4487778 0.008461071 0.093162686 0.09144657
-0.05973969 0.010113864 -0.043634515 -0.19547907 0.025719289 -0.11160167 -0.07735682 -0.0013308548
0.024679227 -0.016365362 0.35344502 0.26421338 0.10308082 0.27426016 0.06799754 0.0033739083
-0.08535816 -0.056828823 -0.033925373 0.2559999 -0.05154446 0.06066943 0.033091355 -0.0933691
-0.035458863 0.11936615 0.6319237 0.010075172 -0.0029449232 0.04957024 0.08351482 -7.5366894e-05
0.0032929035 0.017954756 -0.18375878 0.21532255 -0.12246522 0.0030296734 -0.030713564 -0.1972056
0.013939066 -0.076408476 0.23104164 -0.027227756 0.02575153 0.07207776 -0.5695157 -0.070035726

linear2.bias f4 [3]
00000000: 200e 4e3e 5042 e5bd 4fe2 17be
0.20122576 -0.11194289 -0.14832424
